…
    (logmel): LogMel(sr=24000, n_fft=2048, n_mels=80, fmin=80, fmax=7600, htk=False)
  )
  (score_feats_extract): SyllableScoreFeats(win_length=1200, hop_length=300, center=True, )
  (label_extract): SyllableScoreFeats(win_length=1200, hop_length=300, center=True, )
  (tempo_extract): SyllableScoreFeats(win_length=1200, hop_length=300, center=True, )
  (beat_extract): SyllableScoreFeats(win_length=1200, hop_length=300, center=True, )
  (normalize): GlobalMVN(stats_file=exp/svs_stats_raw_phn_pyopenjtalk_jp/train/feats_stats.npz, norm_means=True, norm_vars=True)
  (svs): NaiveRNNDPALF(
    (syllable_input_layer): Embedding(183, 256, padding_idx=0)
    (midi_syb_input_layer): Embedding(129, 256, padding_idx=0)
    (beat_syb_input_layer): Embedding(700, 256, padding_idx=0)
    (phoneme_segmentation_predictor): PhonemeSegmentationPredictor(
      (conv): ModuleList(
        (0): Sequential(
          (0): Conv1d(512, 384, kernel_size=(3,), stride=(1,), padding=(1,))
          (1): ReLU()
          (2): LayerNorm((384,), eps=1e-12, elementwise_affine=True)
          (3): Dropout(p=0.1, inplace=False)
        )
        (1): Sequential(
          (0): Conv1d(384, 384, kernel_size=(3,), stride=(1,), padding=(1,))
          (1): ReLU()
          (2): LayerNorm((384,), eps=1e-12, elementwise_affine=True)
          (3): Dropout(p=0.1, inplace=False)
        )
      )
      (linear): Linear(in_features=384, out_features=4, bias=True)
    )
    (phoneme_length_regulator): PhonemeLengthRegulator()
    (encoder_input_layer): Embedding(42, 256, padding_idx=0)
    (midi_encoder_input_layer): Embedding(129, 256, padding_idx=0)
    (tempo_encoder_input_layer): Embedding(700, 256, padding_idx=0)
    (syb_encoder): LSTM(256, 256, num_layers=3, batch_first=True, dropout=0.1, bidirectional=True)
    (midi_syb_encoder): LSTM(256, 256, num_layers=3, batch_first=True, dropout=0.1, bidirectional=True)
    (tempo_syb_encoder): LSTM(256, 256, num_layers=3, batch_first=True, dropout=0.1, bidirectional=True)
    (seg_loss): MSELoss()
    (encoder): LSTM(256, 256, num_layers=3, batch_first=True, dropout=0.1, bidirectional=True)
    (midi_encoder): LSTM(256, 256, num_layers=3, batch_first=True, dropout=0.1, bidirectional=True)
    (tempo_encoder): LSTM(256, 256, num_layers=3, batch_first=True, dropout=0.1, bidirectional=True)
    (midi_projection): Linear(in_features=512, out_features=512, bias=True)
    (duration_predictor): DurationPredictor(
      (conv): ModuleList(
        (0): Sequential(
          (0): Conv1d(512, 384, kernel_size=(3,), stride=(1,), padding=(1,))
          (1): ReLU()
          (2): LayerNorm((384,), eps=1e-12, elementwise_affine=True)
          (3): Dropout(p=0.1, inplace=False)
        )
        (1): Sequential(
          (0): Conv1d(384, 384, kernel_size=(3,), stride=(1,), padding=(1,))
          (1): ReLU()
          (2): LayerNorm((384,), eps=1e-12, elementwise_affine=True)
          (3): Dropout(p=0.1, inplace=False)
        )
      )
      (linear): Linear(in_features=384, out_features=1, bias=True)
    )
    (length_regulator): LengthRegulator()
    (decoder): LSTM(512, 256, num_layers=2, batch_first=True, dropout=0.1, bidirectional=True)
    (feat_out): Linear(in_features=512, out_features=80, bias=True)
    (postnet): Postnet(
      (postnet): ModuleList(
        (0): Sequential(
          (0): Conv1d(80, 512, kernel_size=(5,), stride=(1,), padding=(2,), bias=False)
          (1): BatchNorm1d(512, eps=1e-05, momentum=0.1, affine=True, track_running_stats=True)
          (2): Tanh()
          (3): Dropout(p=0.5, inplace=False)
        )
        (1): Sequential(
          (0): Conv1d(512, 512, kernel_size=(5,), stride=(1,), padding=(2,), bias=False)
          (1): BatchNorm1d(512, eps=1e-05, momentum=0.1, affine=True, track_running_stats=True)
          (2): Tanh()
          (3): Dropout(p=0.5, inplace=False)
        )
        (2): Sequential(
          (0): Conv1d(512, 512, kernel_size=(5,), stride=(1,), padding=(2,), bias=False)
          (1): BatchNorm1d(512, eps=1e-05, momentum=0.1, affine=True, track_running_stats=True)
          (2): Tanh()
          (3): Dropout(p=0.5, inplace=False)
        )
        (3): Sequential(
          (0): Conv1d(512, 512, kernel_size=(5,), stride=(1,), padding=(2,), bias=False)
          (1): BatchNorm1d(512, eps=1e-05, momentum=0.1, affine=True, track_running_stats=True)
          (2): Tanh()
          (3): Dropout(p=0.5, inplace=False)
        )
        (4): Sequential(
          (0): Conv1d(512, 80, kernel_size=(5,), stride=(1,), padding=(2,), bias=False)
          (1): BatchNorm1d(80, eps=1e-05, momentum=0.1, affine=True, track_running_stats=True)
          (2): Dropout(p=0.5, inplace=False)
        )
      )
    )
    (criterion): FeedForwardTransformerLoss(
      (l1_criterion): L1Loss()
      (duration_criterion): DurationPredictorLoss(
        (criterion): MSELoss()
      )
    )
  )
)

Model summary:
    Class Name: ESPnetSVSModel
    Total Number of model parameters: 35.60 M
…
